…
 timm-0.9.7 torch-2.0.1 torchvision-0.15.2 triton-2.0.0
    Note: you may need to restart the kernel to use updated packages.



    Downloading model.safetensors:   0%|          | 0.00/16.7M [00:00<?, ?B/s]





    EfficientNet(
      (conv_stem): Conv2dSame(3, 16, kernel_size=(3, 3), stride=(2, 2), bias=False)
      (bn1): BatchNormAct2d(
        16, eps=0.001, momentum=0.1, affine=True, track_running_stats=True
        (drop): Identity()
        (act): ReLU(inplace=True)
      )
      (blocks): Sequential(
        (0): Sequential(
          (0): DepthwiseSeparableConv(
            (conv_dw): Conv2d(16, 16, kernel_size=(3, 3), stride=(1, 1), padding=(1, 1), groups=16, bias=False)
            (bn1): BatchNormAct2d(
              16, eps=0.001, momentum=0.1, affine=True, track_running_stats=True
              (drop): Identity()
              (act): ReLU(inplace=True)
            )
            (se): Identity()
            (conv_pw): Conv2d(16, 16, kernel_size=(1, 1), stride=(1, 1), bias=False)
            (bn2): BatchNormAct2d(
              16, eps=0.001, momentum=0.1, affine=True, track_running_stats=True
              (drop): Identity()
              (act): Identity()
            )
            (drop_path): Identity()
          )
        )
        (1): Sequential(
          (0): InvertedResidual(
            (conv_pw): MixedConv2d(
              (0): Conv2d(8, 48, kernel_size=(1, 1), stride=(1, 1), bias=False)
              (1): Conv2d(8, 48, kernel_size=(1, 1), stride=(1, 1), bias=False)
            )
            (bn1): BatchNormAct2d(
              96, eps=0.001, momentum=0.1, affine=True, track_running_stats=True
              (drop): Identity()
              (act): ReLU(inplace=True)
            )
            (conv_dw): Conv2dSame(96, 96, kernel_size=(3, 3), stride=(2, 2), groups=96, bias=False)
            (bn2): BatchNormAct2d(
              96, eps=0.001, momentum=0.1, affine=True, track_running_stats=True
              (drop): Identity()
              (act): ReLU(inplace=True)
            )
            (se): Identity()
            (conv_pwl): MixedConv2d(
              (0): Conv2d(48, 12, kernel_size=(1, 1), stride=(1, 1), bias=False)
              (1): Conv2d(48, 12, kernel_size=(1, 1), stride=(1, 1), bias=False)
            )
            (bn3): BatchNormAct2d(
              24, eps=0.001, momentum=0.1, affine=True, track_running_stats=True
              (drop): Identity()
              (act): Identity()
            )
            (drop_path): Identity()
          )
          (1): InvertedResidual(
            (conv_pw): MixedConv2d(
              (0): Conv2d(12, 36, kernel_size=(1, 1), stride=(1, 1), bias=False)
              (1): Conv2d(12, 36, kernel_size=(1, 1), stride=(1, 1), bias=False)
            )
            (bn1): BatchNormAct2d(
              72, eps=0.001, momentum=0.1, affine=True, track_running_stats=True
              (drop): Identity()
              (act): ReLU(inplace=True)
            )
            (conv_dw): Conv2d(72, 72, kernel_size=(3, 3), stride=(1, 1), padding=(1, 1), groups=72, bias=False)
            (bn2): BatchNormAct2d(
              72, eps=0.001, momentum=0.1, affine=True, track_running_stats=True
              (drop): Identity()
              (act): ReLU(inplace=True)
            )
            (se): Identity()
            (conv_pwl): MixedConv2d(
              (0): Conv2d(36, 12, kernel_size=(1, 1), stride=(1, 1), bias=False)
              (1): Conv2d(36, 12, kernel_size=(1, 1), stride=(1, 1), bias=False)
            )
            (bn3): BatchNormAct2d(
              24, eps=0.001, momentum=0.1, affine=True, track_running_stats=True
              (drop): Identity()
              (act): Identity()
            )
            (drop_path): Identity()
          )
        )
        (2): Sequential(
          (0): InvertedResidual(
            (conv_pw): Conv2d(24, 144, kernel_size=(1, 1), stride=(1, 1), bias=False)
            (bn1): BatchNormAct2d(
              144, eps=0.001, momentum=0.1, affine=True, track_running_stats=True
              (drop): Identity()
              (act): SiLU(inplace=True)
            )
            (conv_dw): MixedConv2d(
              (0): Conv2dSame(48, 48, kernel_size=(3, 3), stride=(2, 2), groups=48, bias=False)
              (1): Conv2dSame(48, 48, kernel_size=(5, 5), stride=(2, 2), groups=48, bias=False)
              (2): Conv2dSame(48, 48, kernel_size=(7, 7), stride=(2, 2), groups=48, bias=False)
            )
            (bn2): BatchNormAct2d(
              144, eps=0.001, momentum=0.1, affine=True, track_running_stats=True
              (drop): Identity()
              (act): SiLU(inplace=True)
            )
            (se): SqueezeExcite(
              (conv_reduce): Conv2d(144, 12, kernel_size=(1, 1), stride=(1, 1))
              (act1): SiLU(inplace=True)
              (conv_expand): Conv2d(12, 144, kernel_size=(1, 1), stride=(1, 1))
              (gate): Sigmoid()
            )
            (conv_pwl): Conv2d(144, 40, kernel_size=(1, 1), stride=(1, 1), bias=False)
            (bn3): BatchNormAct2d(
              40, eps=0.001, momentum=0.1, affine=True, track_running_stats=True
              (drop): Identity()
              (act): Identity()
            )
            (drop_path): Identity()
          )
          (1): InvertedResidual(
            (conv_pw): MixedConv2d(
              (0): Conv2d(20, 120, kernel_size=(1, 1), stride=(1, 1), bias=False)
              (1): Conv2d(20, 120, kernel_size=(1, 1), stride=(1, 1), bias=False)
            )
            (bn1): BatchNormAct2d(
              240, eps=0.001, momentum=0.1, affine=True, track_running_stats=True
              (drop): Identity()
              (act): SiLU(inplace=True)
            )
            (conv_dw): MixedConv2d(
              (0): Conv2d(120, 120, kernel_size=(3, 3), stride=(1, 1), padding=(1, 1), groups=120, bias=False)
              (1): Conv2d(120, 120, kernel_size=(5, 5), stride=(1, 1), padding=(2, 2), groups=120, bias=False)
            )
            (bn2): BatchNormAct2d(
              240, eps=0.001, momentum=0.1, affine=True, track_running_stats=True
              (drop): Identity()
              (act): SiLU(inplace=True)
            )
            (se): SqueezeExcite(
              (conv_reduce): Conv2d(240, 20, kernel_size=(1, 1), stride=(1, 1))
              (act1): SiLU(inplace=True)
              (conv_expand): Conv2d(20, 240, kernel_size=(1, 1), stride=(1, 1))
              (gate): Sigmoid()
            )
            (conv_pwl): MixedConv2d(
              (0): Conv2d(120, 20, kernel_size=(1, 1), stride=(1, 1), bias=False)
              (1): Conv2d(120, 20, kernel_size=(1, 1), stride=(1, 1), bias=False)
            )
            (bn3): BatchNormAct2d(
              40, eps=0.001, momentum=0.1, affine=True, track_running_stats=True
              (drop): Identity()
              (act): Identity()
            )
            (drop_path): Identity()
          )
          (2): InvertedResidual(
            (conv_pw): MixedConv2d(
              (0): Conv2d(20, 120, kernel_size=(1, 1), stride=(1, 1), bias=False)
              (1): Conv2d(20, 120, kernel_size=(1, 1), stride=(1, 1), bias=False)
            )
            (bn1): BatchNormAct2d(
              240, eps=0.001, momentum=0.1, affine=True, track_running_stats=True
              (drop): Identity()
              (act): SiLU(inplace=True)
            )
            (conv_dw): MixedConv2d(
              (0): Conv2d(120, 120, kernel_size=(3, 3), stride=(1, 1), padding=(1, 1), groups=120, bias=False)
              (1): Conv2d(120, 120, kernel_size=(5, 5), stride=(1, 1), padding=(2, 2), groups=120, bias=False)
            )
            (bn2): BatchNormAct2d(
              240, eps=0.001, momentum=0.1, affine=True, track_running_stats=True
              (drop): Identity()
              (act): SiLU(inplace=True)
            )
            (se): SqueezeExcite(
              (conv_reduce): Conv2d(240, 20, kernel_size=(1, 1), stride=(1, 1))
              (act1): SiLU(inplace=True)
              (conv_expand): Conv2d(20, 240, kernel_size=(1, 1), stride=(1, 1))
              (gate): Sigmoid()
            )
            (conv_pwl): MixedConv2d(
              (0): Conv2d(120, 20, kernel_size=(1, 1), stride=(1, 1), bias=False)
              (1): Conv2d(120, 20, kernel_size=(1, 1), stride=(1, 1), bias=False)
            )
            (bn3): BatchNormAct2d(
              40, eps=0.001, momentum=0.1, affine=True, track_running_stats=True
              (drop): Identity()
              (act): Identity()
            )
            (drop_path): Identity()
          )
          (3): InvertedResidual(
            (conv_pw): MixedConv2d(
              (0): Conv2d(20, 120, kernel_size=(1, 1), stride=(1, 1), bias=False)
              (1): Conv2d(20, 120, kernel_size=(1, 1), stride=(1, 1), bias=False)
            )
            (bn1): BatchNormAct2d(
              240, eps=0.001, momentum=0.1, affine=True, track_running_stats=True
              (drop): Identity()
              (act): SiLU(inplace=True)
            )
            (conv_dw): MixedConv2d(
              (0): Conv2d(120, 120, kernel_size=(3, 3), stride=(1, 1), padding=(1, 1), groups=120, bias=False)
              (1): Conv2d(120, 120, kernel_size=(5, 5), stride=(1, 1), padding=(2, 2), groups=120, bias=False)
            )
            (bn2): BatchNormAct2d(
              240, eps=0.001, momentum=0.1, affine=True, track_running_stats=True
              (drop): Identity()
              (act): SiLU(inplace=True)
            )
            (se): SqueezeExcite(
              (conv_reduce): Conv2d(240, 20, kernel_size=(1, 1), stride=(1, 1))
              (act1): SiLU(inplace=True)
              (conv_expand): Conv2d(20, 240, kernel_size=(1, 1), stride=(1, 1))
              (gate): Sigmoid()
            )
            (conv_pwl): MixedConv2d(
              (0): Conv2d(120, 20, kernel_size=(1, 1), stride=(1, 1), bias=False)
              (1): Conv2d(120, 20, kernel_size=(1, 1), stride=(1, 1), bias=False)
            )
            (bn3): BatchNormAct2d(
              40, eps=0.001, momentum=0.1, affine=True, track_running_stats=True
              (drop): Identity()
              (act): Identity()
            )
            (drop_path): Identity()
          )
        )
        (3): Sequential(
          (0): InvertedResidual(
            (conv_pw): Conv2d(40, 240, kernel_size=(1, 1), stride=(1, 1), bias=False)
            (bn1): BatchNormAct2d(
              240, eps=0.001, momentum=0.1, affine=True, track_running_stats=True
              (drop): Identity()
              (act): SiLU(inplace=True)
            )
            (conv_dw): MixedConv2d(
              (0): Conv2dSame(80, 80, kernel_size=(3, 3), stride=(2, 2), groups=80, bias=False)
              (1): Conv2dSame(80, 80, kernel_size=(5, 5), stride=(2, 2), groups=80, bias=False)
              (2): Conv2dSame(80, 80, kernel_size=(7, 7), stride=(2, 2), groups=80, bias=False)
            )
            (bn2): BatchNormAct2d(
              240, eps=0.001, momentum=0.1, affine=True, track_running_stats=True
              (drop): Identity()
              (act): SiLU(inplace=True)
            )
            (se): SqueezeExcite(
              (conv_reduce): Conv2d(240, 10, kernel_size=(1, 1), stride=(1, 1))
              (act1): SiLU(inplace=True)
              (conv_expand): Conv2d(10, 240, kernel_size=(1, 1), stride=(1, 1))
              (gate): Sigmoid()
            )
            (conv_pwl): MixedConv2d(
              (0): Conv2d(120, 40, kernel_size=(1, 1), stride=(1, 1), bias=False)
              (1): Conv2d(120, 40, kernel_size=(1, 1), stride=(1, 1), bias=False)
            )
            (bn3): BatchNormAct2d(
              80, eps=0.001, momentum=0.1, affine=True, track_running_stats=True
              (drop): Identity()
              (act): Identity()
            )
            (drop_path): Identity()
          )
          (1): InvertedResidual(
            (conv_pw): Conv2d(80, 480, kernel_size=(1, 1), stride=(1, 1), bias=False)
            (bn1): BatchNormAct2d(
              480, eps=0.001, momentum=0.1, affine=True, track_running_stats=True
              (drop): Identity()
              (act): SiLU(inplace=True)
            )
            (conv_dw): MixedConv2d(
              (0): Conv2d(240, 240, kernel_size=(3, 3), stride=(1, 1), padding=(1, 1), groups=240, bias=False)
              (1): Conv2d(240, 240, kernel_size=(5, 5), stride=(1, 1), padding=(2, 2), groups=240, bias=False)
            )
            (bn2): BatchNormAct2d(
              480, eps=0.001, momentum=0.1, affine=True, track_running_stats=True
              (drop): Identity()
              (act): SiLU(inplace=True)
            )
            (se): SqueezeExcite(
              (conv_reduce): Conv2d(480, 20, kernel_size=(1, 1), stride=(1, 1))
              (act1): SiLU(inplace=True)
              (conv_expand): Conv2d(20, 480, kernel_size=(1, 1), stride=(1, 1))
              (gate): Sigmoid()
            )
            (conv_pwl): MixedConv2d(
              (0): Conv2d(240, 40, kernel_size=(1, 1), stride=(1, 1), bias=False)
              (1): Conv2d(240, 40, kernel_size=(1, 1), stride=(1, 1), bias=False)
            )
            (bn3): BatchNormAct2d(
              80, eps=0.001, momentum=0.1, affine=True, track_running_stats=True
              (drop): Identity()
              (act): Identity()
            )
            (drop_path): Identity()
          )
          (2): InvertedResidual(
            (conv_pw): Conv2d(80, 480, kernel_size=(1, 1), stride=(1, 1), bias=False)
            (bn1): BatchNormAct2d(
              480, eps=0.001, momentum=0.1, affine=True, track_running_stats=True
              (drop): Identity()
              (act): SiLU(inplace=True)
            )
            (conv_dw): MixedConv2d(
              (0): Conv2d(240, 240, kernel_size=(3, 3), stride=(1, 1), padding=(1, 1), groups=240, bias=False)
              (1): Conv2d(240, 240, kernel_size=(5, 5), stride=(1, 1), padding=(2, 2), groups=240, bias=False)
            )
            (bn2): BatchNormAct2d(
              480, eps=0.001, momentum=0.1, affine=True, track_running_stats=True
              (drop): Identity()
              (act): SiLU(inplace=True)
            )
            (se): SqueezeExcite(
              (conv_reduce): Conv2d(480, 20, kernel_size=(1, 1), stride=(1, 1))
              (act1): SiLU(inplace=True)
              (conv_expand): Conv2d(20, 480, kernel_size=(1, 1), stride=(1, 1))
              (gate): Sigmoid()
            )
            (conv_pwl): MixedConv2d(
              (0): Conv2d(240, 40, kernel_size=(1, 1), stride=(1, 1), bias=False)
              (1): Conv2d(240, 40, kernel_size=(1, 1), stride=(1, 1), bias=False)
            )
            (bn3): BatchNormAct2d(
              80, eps=0.001, momentum=0.1, affine=True, track_running_stats=True
              (drop): Identity()
              (act): Identity()
            )
            (drop_path): Identity()
          )
        )
        (4): Sequential(
          (0): InvertedResidual(
            (conv_pw): MixedConv2d(
              (0): Conv2d(40, 240, kernel_size=(1, 1), stride=(1, 1), bias=False)
              (1): Conv2d(40, 240, kernel_size=(1, 1), stride=(1, 1), bias=False)
            )
            (bn1): BatchNormAct2d(
              480, eps=0.001, momentum=0.1, affine=True, track_running_stats=True
              (drop): Identity()
              (act): SiLU(inplace=True)
            )
            (conv_dw): MixedConv2d(
              (0): Conv2d(160, 160, kernel_size=(3, 3), stride=(1, 1), padding=(1, 1), groups=160, bias=False)
              (1): Conv2d(160, 160, kernel_size=(5, 5), stride=(1, 1), padding=(2, 2), groups=160, bias=False)
              (2): Conv2d(160, 160, kernel_size=(7, 7), stride=(1, 1), padding=(3, 3), groups=160, bias=False)
            )
            (bn2): BatchNormAct2d(
              480, eps=0.001, momentum=0.1, affine=True, track_running_stats=True
              (drop): Identity()
              (act): SiLU(inplace=True)
            )
            (se): SqueezeExcite(
              (conv_reduce): Conv2d(480, 40, kernel_size=(1, 1), stride=(1, 1))
              (act1): SiLU(inplace=True)
              (conv_expand): Conv2d(40, 480, kernel_size=(1, 1), stride=(1, 1))
              (gate): Sigmoid()
            )
            (conv_pwl): MixedConv2d(
              (0): Conv2d(240, 60, kernel_size=(1, 1), stride=(1, 1), bias=False)
              (1): Conv2d(240, 60, kernel_size=(1, 1), stride=(1, 1), bias=False)
            )
            (bn3): BatchNormAct2d(
              120, eps=0.001, momentum=0.1, affine=True, track_running_stats=True
              (drop): Identity()
              (act): Identity()
            )
            (drop_path): Identity()
          )
          (1): InvertedResidual(
            (conv_pw): MixedConv2d(
              (0): Conv2d(60, 180, kernel_size=(1, 1), stride=(1, 1), bias=False)
              (1): Conv2d(60, 180, kernel_size=(1, 1), stride=(1, 1), bias=False)
            )
            (bn1): BatchNormAct2d(
              360, eps=0.001, momentum=0.1, affine=True, track_running_stats=True
              (drop): Identity()
              (act): SiLU(inplace=True)
            )
            (conv_dw): MixedConv2d(
              (0): Conv2d(90, 90, kernel_size=(3, 3), stride=(1, 1), padding=(1, 1), groups=90, bias=False)
              (1): Conv2d(90, 90, kernel_size=(5, 5), stride=(1, 1), padding=(2, 2), groups=90, bias=False)
              (2): Conv2d(90, 90, kernel_size=(7, 7), stride=(1, 1), padding=(3, 3), groups=90, bias=False)
              (3): Conv2d(90, 90, kernel_size=(9, 9), stride=(1, 1), padding=(4, 4), groups=90, bias=False)
            )
            (bn2): BatchNormAct2d(
              360, eps=0.001, momentum=0.1, affine=True, track_running_stats=True
              (drop): Identity()
              (act): SiLU(inplace=True)
            )
            (se): SqueezeExcite(
              (conv_reduce): Conv2d(360, 60, kernel_size=(1, 1), stride=(1, 1))
              (act1): SiLU(inplace=True)
              (conv_expand): Conv2d(60, 360, kernel_size=(1, 1), stride=(1, 1))
              (gate): Sigmoid()
            )
            (conv_pwl): MixedConv2d(
              (0): Conv2d(180, 60, kernel_size=(1, 1), stride=(1, 1), bias=False)
              (1): Conv2d(180, 60, kernel_size=(1, 1), stride=(1, 1), bias=False)
            )
            (bn3): BatchNormAct2d(
              120, eps=0.001, momentum=0.1, affine=True, track_running_stats=True
              (drop): Identity()
              (act): Identity()
            )
            (drop_path): Identity()
          )
          (2): InvertedResidual(
            (conv_pw): MixedConv2d(
              (0): Conv2d(60, 180, kernel_size=(1, 1), stride=(1, 1), bias=False)
              (1): Conv2d(60, 180, kernel_size=(1, 1), stride=(1, 1), bias=False)
            )
            (bn1): BatchNormAct2d(
              360, eps=0.001, momentum=0.1, affine=True, track_running_stats=True
              (drop): Identity()
              (act): SiLU(inplace=True)
            )
            (conv_dw): MixedConv2d(
              (0): Conv2d(90, 90, kernel_size=(3, 3), stride=(1, 1), padding=(1, 1), groups=90, bias=False)
              (1): Conv2d(90, 90, kernel_size=(5, 5), stride=(1, 1), padding=(2, 2), groups=90, bias=False)
              (2): Conv2d(90, 90, kernel_size=(7, 7), stride=(1, 1), padding=(3, 3), groups=90, bias=False)
              (3): Conv2d(90, 90, kernel_size=(9, 9), stride=(1, 1), padding=(4, 4), groups=90, bias=False)
            )
            (bn2): BatchNormAct2d(
              360, eps=0.001, momentum=0.1, affine=True, track_running_stats=True
              (drop): Identity()
              (act): SiLU(inplace=True)
            )
            (se): SqueezeExcite(
              (conv_reduce): Conv2d(360, 60, kernel_size=(1, 1), stride=(1, 1))
              (act1): SiLU(inplace=True)
              (conv_expand): Conv2d(60, 360, kernel_size=(1, 1), stride=(1, 1))
              (gate): Sigmoid()
            )
            (conv_pwl): MixedConv2d(
              (0): Conv2d(180, 60, kernel_size=(1, 1), stride=(1, 1), bias=False)
              (1): Conv2d(180, 60, kernel_size=(1, 1), stride=(1, 1), bias=False)
            )
            (bn3): BatchNormAct2d(
              120, eps=0.001, momentum=0.1, affine=True, track_running_stats=True
              (drop): Identity()
              (act): Identity()
            )
            (drop_path): Identity()
          )
        )
        (5): Sequential(
          (0): InvertedResidual(
            (conv_pw): Conv2d(120, 720, kernel_size=(1, 1), stride=(1, 1), bias=False)
            (bn1): BatchNormAct2d(
              720, eps=0.001, momentum=0.1, affine=True, track_running_stats=True
              (drop): Identity()
              (act): SiLU(inplace=True)
            )
            (conv_dw): MixedConv2d(
              (0): Conv2dSame(144, 144, kernel_size=(3, 3), stride=(2, 2), groups=144, bias=False)
              (1): Conv2dSame(144, 144, kernel_size=(5, 5), stride=(2, 2), groups=144, bias=False)
              (2): Conv2dSame(144, 144, kernel_size=(7, 7), stride=(2, 2), groups=144, bias=False)
              (3): Conv2dSame(144, 144, kernel_size=(9, 9), stride=(2, 2), groups=144, bias=False)
              (4): Conv2dSame(144, 144, kernel_size=(11, 11), stride=(2, 2), groups=144, bias=False)
            )
            (bn2): BatchNormAct2d(
              720, eps=0.001, momentum=0.1, affine=True, track_running_stats=True
              (drop): Identity()
              (act): SiLU(inplace=True)
            )
            (se): SqueezeExcite(
              (conv_reduce): Conv2d(720, 60, kernel_size=(1, 1), stride=(1, 1))
              (act1): SiLU(inplace=True)
              (conv_expand): Conv2d(60, 720, kernel_size=(1, 1), stride=(1, 1))
              (gate): Sigmoid()
            )
            (conv_pwl): Conv2d(720, 200, kernel_size=(1, 1), stride=(1, 1), bias=False)
            (bn3): BatchNormAct2d(
              200, eps=0.001, momentum=0.1, affine=True, track_running_stats=True
              (drop): Identity()
              (act): Identity()
            )
            (drop_path): Identity()
          )
          (1): InvertedResidual(
            (conv_pw): Conv2d(200, 1200, kernel_size=(1, 1), stride=(1, 1), bias=False)
            (bn1): BatchNormAct2d(
              1200, eps=0.001, momentum=0.1, affine=True, track_running_stats=True
              (drop): Identity()
              (act): SiLU(inplace=True)
            )
            (conv_dw): MixedConv2d(
              (0): Conv2d(300, 300, kernel_size=(3, 3), stride=(1, 1), padding=(1, 1), groups=300, bias=False)
              (1): Conv2d(300, 300, kernel_size=(5, 5), stride=(1, 1), padding=(2, 2), groups=300, bias=False)
              (2): Conv2d(300, 300, kernel_size=(7, 7), stride=(1, 1), padding=(3, 3), groups=300, bias=False)
              (3): Conv2d(300, 300, kernel_size=(9, 9), stride=(1, 1), padding=(4, 4), groups=300, bias=False)
            )
            (bn2): BatchNormAct2d(
              1200, eps=0.001, momentum=0.1, affine=True, track_running_stats=True
              (drop): Identity()
              (act): SiLU(inplace=True)
            )
            (se): SqueezeExcite(
              (conv_reduce): Conv2d(1200, 100, kernel_size=(1, 1), stride=(1, 1))
              (act1): SiLU(inplace=True)
              (conv_expand): Conv2d(100, 1200, kernel_size=(1, 1), stride=(1, 1))
              (gate): Sigmoid()
            )
            (conv_pwl): MixedConv2d(
              (0): Conv2d(600, 100, kernel_size=(1, 1), stride=(1, 1), bias=False)
              (1): Conv2d(600, 100, kernel_size=(1, 1), stride=(1, 1), bias=False)
            )
            (bn3): BatchNormAct2d(
              200, eps=0.001, momentum=0.1, affine=True, track_running_stats=True
              (drop): Identity()
              (act): Identity()
            )
            (drop_path): Identity()
          )
          (2): InvertedResidual(
            (conv_pw): Conv2d(200, 1200, kernel_size=(1, 1), stride=(1, 1), bias=False)
            (bn1): BatchNormAct2d(
              1200, eps=0.001, momentum=0.1, affine=True, track_running_stats=True
              (drop): Identity()
              (act): SiLU(inplace=True)
            )
            (conv_dw): MixedConv2d(
              (0): Conv2d(300, 300, kernel_size=(3, 3), stride=(1, 1), padding=(1, 1), groups=300, bias=False)
              (1): Conv2d(300, 300, kernel_size=(5, 5), stride=(1, 1), padding=(2, 2), groups=300, bias=False)
              (2): Conv2d(300, 300, kernel_size=(7, 7), stride=(1, 1), padding=(3, 3), groups=300, bias=False)
              (3): Conv2d(300, 300, kernel_size=(9, 9), stride=(1, 1), padding=(4, 4), groups=300, bias=False)
            )
            (bn2): BatchNormAct2d(
              1200, eps=0.001, momentum=0.1, affine=True, track_running_stats=True
              (drop): Identity()
              (act): SiLU(inplace=True)
            )
            (se): SqueezeExcite(
              (conv_reduce): Conv2d(1200, 100, kernel_size=(1, 1), stride=(1, 1))
              (act1): SiLU(inplace=True)
              (conv_expand): Conv2d(100, 1200, kernel_size=(1, 1), stride=(1, 1))
              (gate): Sigmoid()
            )
            (conv_pwl): MixedConv2d(
              (0): Conv2d(600, 100, kernel_size=(1, 1), stride=(1, 1), bias=False)
              (1): Conv2d(600, 100, kernel_size=(1, 1), stride=(1, 1), bias=False)
            )
            (bn3): BatchNormAct2d(
              200, eps=0.001, momentum=0.1, affine=True, track_running_stats=True
              (drop): Identity()
              (act): Identity()
            )
            (drop_path): Identity()
          )
        )
      )
      (conv_head): Conv2d(200, 1536, kernel_size=(1, 1), stride=(1, 1), bias=False)
      (bn2): BatchNormAct2d(
        1536, eps=0.001, momentum=0.1, affine=True, track_running_stats=True
        (drop): Identity()
        (act): ReLU(inplace=True)
      )
      (global_pool): SelectAdaptivePool2d (pool_type=avg, flatten=Flatten(start_dim=1, end_dim=-1))
      (classifier): Linear(in_features=1536, out_features=8, bias=True)
    )

